…
Min-Max after scaling, validation dataset: (0.4736,0.9464)

Dataset Training: 
<BatchDataset shapes: ((None, 2), (None, 3)), types: (tf.float32, tf.float32)>

Dataset Validation: 
<BatchDataset shapes: ((None, 2), (None, 3)), types: (tf.float32, tf.float32)>
Model: "model"
_________________________________________________________________
Layer (type)                 Output Shape              Param #   
=================================================================
input_1 (InputLayer)         [(None, 2)]               0         
_________________________________________________________________
dense (Dense)                (None, 8)                 24        
_________________________________________________________________
dense_1 (Dense)              (None, 8)                 72        
_________________________________________________________________
dense_2 (Dense)              (None, 8)                 72        
_________________________________________________________________
dense_3 (Dense)              (None, 8)                 72        
_________________________________________________________________
dense_4 (Dense)              (None, 8)                 72        
_________________________________________________________________
dense_5 (Dense)              (None, 8)                 72        
_________________________________________________________________
dense_6 (Dense)              (None, 8)                 72        
_________________________________________________________________
dense_7 (Dense)              (None, 8)                 72        
_________________________________________________________________
dense_8 (Dense)              (None, 8)                 72        
_________________________________________________________________
dense_9 (Dense)              (None, 8)                 72        
_________________________________________________________________
dense_10 (Dense)             (None, 8)                 72        
_________________________________________________________________
dense_11 (Dense)             (None, 8)                 72        
_________________________________________________________________
dense_12 (Dense)             (None, 8)                 72        
_________________________________________________________________
dense_13 (Dense)             (None, 8)                 72        
_________________________________________________________________
dense_14 (Dense)             (None, 8)                 72        
_________________________________________________________________
dense_15 (Dense)             (None, 8)                 72        
_________________________________________________________________
dense_16 (Dense)             (None, 8)                 72        
_________________________________________________________________
dense_17 (Dense)             (None, 8)                 72        
_________________________________________________________________
dense_18 (Dense)             (None, 8)                 72        
_________________________________________________________________
dense_19 (Dense)             (None, 8)                 72        
_________________________________________________________________
dense_20 (Dense)             (None, 3)                 27        
=================================================================
Total params: 1,419
Trainable params: 1,419
Non-trainable params: 0
_________________________________________________________________
None
Learning rate scheduler defined. Learning rate will decay exponentially, with:
    initial learning rate: 1.0000e-03
    decay rate: 1.0000e-01
    decay step: 5.0000e+00

Epoch 1: LearningRateScheduler setting learning rate to 0.001.
…
