…
Min-Max after scaling, validation dataset: (0.4736,0.9464)

Dataset Training: 
<BatchDataset shapes: ((None, 2), (None, 3)), types: (tf.float32, tf.float32)>

Dataset Validation: 
<BatchDataset shapes: ((None, 2), (None, 3)), types: (tf.float32, tf.float32)>
Model: "model"
_________________________________________________________________
Layer (type)                 Output Shape              Param #   
=================================================================
input_1 (InputLayer)         [(None, 2)]               0         
_________________________________________________________________
dense (Dense)                (None, 8)                 24        
_________________________________________________________________
dense_1 (Dense)              (None, 8)                 72        
_________________________________________________________________
dense_2 (Dense)              (None, 8)                 72        
_________________________________________________________________
dense_3 (Dense)              (None, 8)                 72        
_________________________________________________________________
dense_4 (Dense)              (None, 8)                 72        
_________________________________________________________________
dense_5 (Dense)              (None, 8)                 72        
_________________________________________________________________
dense_6 (Dense)              (None, 8)                 72        
_________________________________________________________________
dense_7 (Dense)              (None, 8)                 72        
_________________________________________________________________
dense_8 (Dense)              (None, 8)                 72        
_________________________________________________________________
dense_9 (Dense)              (None, 8)                 72        
_________________________________________________________________
dense_10 (Dense)             (None, 8)                 72        
_________________________________________________________________
dense_11 (Dense)             (None, 8)                 72        
_________________________________________________________________
dense_12 (Dense)             (None, 8)                 72        
_________________________________________________________________
dense_13 (Dense)             (None, 8)                 72        
_________________________________________________________________
dense_14 (Dense)             (None, 8)                 72        
_________________________________________________________________
dense_15 (Dense)             (None, 8)                 72        
_________________________________________________________________
dense_16 (Dense)             (None, 8)                 72        
_________________________________________________________________
dense_17 (Dense)             (None, 8)                 72        
_________________________________________________________________
dense_18 (Dense)             (None, 8)                 72        
_________________________________________________________________
dense_19 (Dense)             (None, 3)                 27        
=================================================================
Total params: 1,347
Trainable params: 1,347
Non-trainable params: 0
_________________________________________________________________
None

----------------------------------------------------------------------------------
----------------------------------------------------------------------------------
Hidden Layers: 19, Neurons per hidden layer: 8, Learning rate: 0.0001
…
Min-Max after scaling, validation dataset: (0.4736,0.9464)

Dataset Training: 
<BatchDataset shapes: ((None, 2), (None, 3)), types: (tf.float32, tf.float32)>

Dataset Validation: 
<BatchDataset shapes: ((None, 2), (None, 3)), types: (tf.float32, tf.float32)>
Model: "model"
_________________________________________________________________
Layer (type)                 Output Shape              Param #   
=================================================================
input_1 (InputLayer)         [(None, 2)]               0         
_________________________________________________________________
dense (Dense)                (None, 16)                48        
_________________________________________________________________
dense_1 (Dense)              (None, 16)                272       
_________________________________________________________________
dense_2 (Dense)              (None, 16)                272       
_________________________________________________________________
dense_3 (Dense)              (None, 16)                272       
_________________________________________________________________
dense_4 (Dense)              (None, 16)                272       
_________________________________________________________________
dense_5 (Dense)              (None, 16)                272       
_________________________________________________________________
dense_6 (Dense)              (None, 16)                272       
_________________________________________________________________
dense_7 (Dense)              (None, 16)                272       
_________________________________________________________________
dense_8 (Dense)              (None, 16)                272       
_________________________________________________________________
dense_9 (Dense)              (None, 16)                272       
_________________________________________________________________
dense_10 (Dense)             (None, 16)                272       
_________________________________________________________________
dense_11 (Dense)             (None, 16)                272       
_________________________________________________________________
dense_12 (Dense)             (None, 16)                272       
_________________________________________________________________
dense_13 (Dense)             (None, 16)                272       
_________________________________________________________________
dense_14 (Dense)             (None, 16)                272       
_________________________________________________________________
dense_15 (Dense)             (None, 16)                272       
_________________________________________________________________
dense_16 (Dense)             (None, 16)                272       
_________________________________________________________________
dense_17 (Dense)             (None, 16)                272       
_________________________________________________________________
dense_18 (Dense)             (None, 16)                272       
_________________________________________________________________
dense_19 (Dense)             (None, 3)                 51        
=================================================================
Total params: 4,995
Trainable params: 4,995
Non-trainable params: 0
_________________________________________________________________
None

----------------------------------------------------------------------------------
----------------------------------------------------------------------------------
Hidden Layers: 19, Neurons per hidden layer: 16, Learning rate: 0.0001
…
Min-Max after scaling, validation dataset: (0.4736,0.9464)

Dataset Training: 
<BatchDataset shapes: ((None, 2), (None, 3)), types: (tf.float32, tf.float32)>

Dataset Validation: 
<BatchDataset shapes: ((None, 2), (None, 3)), types: (tf.float32, tf.float32)>
Model: "model"
_________________________________________________________________
Layer (type)                 Output Shape              Param #   
=================================================================
input_1 (InputLayer)         [(None, 2)]               0         
_________________________________________________________________
dense (Dense)                (None, 32)                96        
_________________________________________________________________
dense_1 (Dense)              (None, 32)                1056      
_________________________________________________________________
dense_2 (Dense)              (None, 32)                1056      
_________________________________________________________________
dense_3 (Dense)              (None, 32)                1056      
_________________________________________________________________
dense_4 (Dense)              (None, 32)                1056      
_________________________________________________________________
dense_5 (Dense)              (None, 32)                1056      
_________________________________________________________________
dense_6 (Dense)              (None, 32)                1056      
_________________________________________________________________
dense_7 (Dense)              (None, 32)                1056      
_________________________________________________________________
dense_8 (Dense)              (None, 32)                1056      
_________________________________________________________________
dense_9 (Dense)              (None, 32)                1056      
_________________________________________________________________
dense_10 (Dense)             (None, 32)                1056      
_________________________________________________________________
dense_11 (Dense)             (None, 32)                1056      
_________________________________________________________________
dense_12 (Dense)             (None, 32)                1056      
_________________________________________________________________
dense_13 (Dense)             (None, 32)                1056      
_________________________________________________________________
dense_14 (Dense)             (None, 32)                1056      
_________________________________________________________________
dense_15 (Dense)             (None, 32)                1056      
_________________________________________________________________
dense_16 (Dense)             (None, 32)                1056      
_________________________________________________________________
dense_17 (Dense)             (None, 32)                1056      
_________________________________________________________________
dense_18 (Dense)             (None, 32)                1056      
_________________________________________________________________
dense_19 (Dense)             (None, 3)                 99        
=================================================================
Total params: 19,203
Trainable params: 19,203
Non-trainable params: 0
_________________________________________________________________
None

----------------------------------------------------------------------------------
----------------------------------------------------------------------------------
Hidden Layers: 19, Neurons per hidden layer: 32, Learning rate: 0.0001
…
Min-Max after scaling, validation dataset: (0.4736,0.9464)

Dataset Training: 
<BatchDataset shapes: ((None, 2), (None, 3)), types: (tf.float32, tf.float32)>

Dataset Validation: 
<BatchDataset shapes: ((None, 2), (None, 3)), types: (tf.float32, tf.float32)>
Model: "model"
_________________________________________________________________
Layer (type)                 Output Shape              Param #   
=================================================================
input_1 (InputLayer)         [(None, 2)]               0         
_________________________________________________________________
dense (Dense)                (None, 64)                192       
_________________________________________________________________
dense_1 (Dense)              (None, 64)                4160      
_________________________________________________________________
dense_2 (Dense)              (None, 64)                4160      
_________________________________________________________________
dense_3 (Dense)              (None, 64)                4160      
_________________________________________________________________
dense_4 (Dense)              (None, 64)                4160      
_________________________________________________________________
dense_5 (Dense)              (None, 64)                4160      
_________________________________________________________________
dense_6 (Dense)              (None, 64)                4160      
_________________________________________________________________
dense_7 (Dense)              (None, 64)                4160      
_________________________________________________________________
dense_8 (Dense)              (None, 64)                4160      
_________________________________________________________________
dense_9 (Dense)              (None, 64)                4160      
_________________________________________________________________
dense_10 (Dense)             (None, 64)                4160      
_________________________________________________________________
dense_11 (Dense)             (None, 64)                4160      
_________________________________________________________________
dense_12 (Dense)             (None, 64)                4160      
_________________________________________________________________
dense_13 (Dense)             (None, 64)                4160      
_________________________________________________________________
dense_14 (Dense)             (None, 64)                4160      
_________________________________________________________________
dense_15 (Dense)             (None, 64)                4160      
_________________________________________________________________
dense_16 (Dense)             (None, 64)                4160      
_________________________________________________________________
dense_17 (Dense)             (None, 64)                4160      
_________________________________________________________________
dense_18 (Dense)             (None, 64)                4160      
_________________________________________________________________
dense_19 (Dense)             (None, 3)                 195       
=================================================================
Total params: 75,267
Trainable params: 75,267
Non-trainable params: 0
_________________________________________________________________
None
Loss takes NaN value at Epoch 20, Batch 13829. Consider using a smaller learning rate.

----------------------------------------------------------------------------------
----------------------------------------------------------------------------------
…
