…
Min-Max after scaling, prediction dataset: (0.4736,0.9464)

Dataset Prediction: 
<BatchDataset element_spec=(TensorSpec(shape=(None, 2), dtype=tf.float32, name=None), TensorSpec(shape=(None, 3), dtype=tf.float32, name=None))>
Model: "model"
_________________________________________________________________
 Layer (type)                Output Shape              Param #   
=================================================================
 input_1 (InputLayer)        [(None, 2)]               0         
                                                                 
 dense (Dense)               (None, 16)                48        
                                                                 
 dense_1 (Dense)             (None, 16)                272       
                                                                 
 dense_2 (Dense)             (None, 16)                272       
                                                                 
 dense_3 (Dense)             (None, 16)                272       
                                                                 
 dense_4 (Dense)             (None, 16)                272       
                                                                 
 dense_5 (Dense)             (None, 16)                272       
                                                                 
 dense_6 (Dense)             (None, 3)                 51        
                                                                 
=================================================================
Total params: 1,459
Trainable params: 1,459
Non-trainable params: 0
_________________________________________________________________
None

-----------------------------------------------------------------------------

Predicting...
Prediction done

Building prediction plots....
…
