…
Min-Max after scaling, validation dataset: (0.4736,0.9464)

Dataset Training: 
<BatchDataset shapes: ((None, 2), (None, 3)), types: (tf.float32, tf.float32)>

Dataset Validation: 
<BatchDataset shapes: ((None, 2), (None, 3)), types: (tf.float32, tf.float32)>
Model: "model"
_________________________________________________________________
Layer (type)                 Output Shape              Param #   
=================================================================
input_1 (InputLayer)         [(None, 2)]               0         
_________________________________________________________________
dense (Dense)                (None, 8)                 24        
_________________________________________________________________
dense_1 (Dense)              (None, 8)                 72        
_________________________________________________________________
dense_2 (Dense)              (None, 8)                 72        
_________________________________________________________________
dense_3 (Dense)              (None, 8)                 72        
_________________________________________________________________
dense_4 (Dense)              (None, 8)                 72        
_________________________________________________________________
dense_5 (Dense)              (None, 8)                 72        
_________________________________________________________________
dense_6 (Dense)              (None, 8)                 72        
_________________________________________________________________
dense_7 (Dense)              (None, 8)                 72        
_________________________________________________________________
dense_8 (Dense)              (None, 8)                 72        
_________________________________________________________________
dense_9 (Dense)              (None, 8)                 72        
_________________________________________________________________
dense_10 (Dense)             (None, 8)                 72        
_________________________________________________________________
dense_11 (Dense)             (None, 8)                 72        
_________________________________________________________________
dense_12 (Dense)             (None, 8)                 72        
_________________________________________________________________
dense_13 (Dense)             (None, 3)                 27        
=================================================================
Total params: 915
Trainable params: 915
Non-trainable params: 0
_________________________________________________________________
None

----------------------------------------------------------------------------------
----------------------------------------------------------------------------------
Hidden Layers: 13, Neurons per hidden layer: 8, Learning rate: 0.0001
…
Min-Max after scaling, validation dataset: (0.4736,0.9464)

Dataset Training: 
<BatchDataset shapes: ((None, 2), (None, 3)), types: (tf.float32, tf.float32)>

Dataset Validation: 
<BatchDataset shapes: ((None, 2), (None, 3)), types: (tf.float32, tf.float32)>
Model: "model"
_________________________________________________________________
Layer (type)                 Output Shape              Param #   
=================================================================
input_1 (InputLayer)         [(None, 2)]               0         
_________________________________________________________________
dense (Dense)                (None, 16)                48        
_________________________________________________________________
dense_1 (Dense)              (None, 16)                272       
_________________________________________________________________
dense_2 (Dense)              (None, 16)                272       
_________________________________________________________________
dense_3 (Dense)              (None, 16)                272       
_________________________________________________________________
dense_4 (Dense)              (None, 16)                272       
_________________________________________________________________
dense_5 (Dense)              (None, 16)                272       
_________________________________________________________________
dense_6 (Dense)              (None, 16)                272       
_________________________________________________________________
dense_7 (Dense)              (None, 16)                272       
_________________________________________________________________
dense_8 (Dense)              (None, 16)                272       
_________________________________________________________________
dense_9 (Dense)              (None, 16)                272       
_________________________________________________________________
dense_10 (Dense)             (None, 16)                272       
_________________________________________________________________
dense_11 (Dense)             (None, 16)                272       
_________________________________________________________________
dense_12 (Dense)             (None, 16)                272       
_________________________________________________________________
dense_13 (Dense)             (None, 3)                 51        
=================================================================
Total params: 3,363
Trainable params: 3,363
Non-trainable params: 0
_________________________________________________________________
None

----------------------------------------------------------------------------------
----------------------------------------------------------------------------------
Hidden Layers: 13, Neurons per hidden layer: 16, Learning rate: 0.0001
…
Min-Max after scaling, validation dataset: (0.4736,0.9464)

Dataset Training: 
<BatchDataset shapes: ((None, 2), (None, 3)), types: (tf.float32, tf.float32)>

Dataset Validation: 
<BatchDataset shapes: ((None, 2), (None, 3)), types: (tf.float32, tf.float32)>
Model: "model"
_________________________________________________________________
Layer (type)                 Output Shape              Param #   
=================================================================
input_1 (InputLayer)         [(None, 2)]               0         
_________________________________________________________________
dense (Dense)                (None, 32)                96        
_________________________________________________________________
dense_1 (Dense)              (None, 32)                1056      
_________________________________________________________________
dense_2 (Dense)              (None, 32)                1056      
_________________________________________________________________
dense_3 (Dense)              (None, 32)                1056      
_________________________________________________________________
dense_4 (Dense)              (None, 32)                1056      
_________________________________________________________________
dense_5 (Dense)              (None, 32)                1056      
_________________________________________________________________
dense_6 (Dense)              (None, 32)                1056      
_________________________________________________________________
dense_7 (Dense)              (None, 32)                1056      
_________________________________________________________________
dense_8 (Dense)              (None, 32)                1056      
_________________________________________________________________
dense_9 (Dense)              (None, 32)                1056      
_________________________________________________________________
dense_10 (Dense)             (None, 32)                1056      
_________________________________________________________________
dense_11 (Dense)             (None, 32)                1056      
_________________________________________________________________
dense_12 (Dense)             (None, 32)                1056      
_________________________________________________________________
dense_13 (Dense)             (None, 3)                 99        
=================================================================
Total params: 12,867
Trainable params: 12,867
Non-trainable params: 0
_________________________________________________________________
None
Loss takes NaN value at Epoch 1, Batch 6. Consider using a smaller learning rate.

----------------------------------------------------------------------------------
----------------------------------------------------------------------------------
…
Min-Max after scaling, validation dataset: (0.4736,0.9464)

Dataset Training: 
<BatchDataset shapes: ((None, 2), (None, 3)), types: (tf.float32, tf.float32)>

Dataset Validation: 
<BatchDataset shapes: ((None, 2), (None, 3)), types: (tf.float32, tf.float32)>
Model: "model"
_________________________________________________________________
Layer (type)                 Output Shape              Param #   
=================================================================
input_1 (InputLayer)         [(None, 2)]               0         
_________________________________________________________________
dense (Dense)                (None, 64)                192       
_________________________________________________________________
dense_1 (Dense)              (None, 64)                4160      
_________________________________________________________________
dense_2 (Dense)              (None, 64)                4160      
_________________________________________________________________
dense_3 (Dense)              (None, 64)                4160      
_________________________________________________________________
dense_4 (Dense)              (None, 64)                4160      
_________________________________________________________________
dense_5 (Dense)              (None, 64)                4160      
_________________________________________________________________
dense_6 (Dense)              (None, 64)                4160      
_________________________________________________________________
dense_7 (Dense)              (None, 64)                4160      
_________________________________________________________________
dense_8 (Dense)              (None, 64)                4160      
_________________________________________________________________
dense_9 (Dense)              (None, 64)                4160      
_________________________________________________________________
dense_10 (Dense)             (None, 64)                4160      
_________________________________________________________________
dense_11 (Dense)             (None, 64)                4160      
_________________________________________________________________
dense_12 (Dense)             (None, 64)                4160      
_________________________________________________________________
dense_13 (Dense)             (None, 3)                 195       
=================================================================
Total params: 50,307
Trainable params: 50,307
Non-trainable params: 0
_________________________________________________________________
None
Loss takes NaN value at Epoch 26, Batch 2163. Consider using a smaller learning rate.

----------------------------------------------------------------------------------
----------------------------------------------------------------------------------
…
Min-Max after scaling, validation dataset: (0.4736,0.9464)

Dataset Training: 
<BatchDataset shapes: ((None, 2), (None, 3)), types: (tf.float32, tf.float32)>

Dataset Validation: 
<BatchDataset shapes: ((None, 2), (None, 3)), types: (tf.float32, tf.float32)>
Model: "model"
_________________________________________________________________
Layer (type)                 Output Shape              Param #   
=================================================================
input_1 (InputLayer)         [(None, 2)]               0         
_________________________________________________________________
dense (Dense)                (None, 128)               384       
_________________________________________________________________
dense_1 (Dense)              (None, 128)               16512     
_________________________________________________________________
dense_2 (Dense)              (None, 128)               16512     
_________________________________________________________________
dense_3 (Dense)              (None, 128)               16512     
_________________________________________________________________
dense_4 (Dense)              (None, 128)               16512     
_________________________________________________________________
dense_5 (Dense)              (None, 128)               16512     
_________________________________________________________________
dense_6 (Dense)              (None, 128)               16512     
_________________________________________________________________
dense_7 (Dense)              (None, 128)               16512     
_________________________________________________________________
dense_8 (Dense)              (None, 128)               16512     
_________________________________________________________________
dense_9 (Dense)              (None, 128)               16512     
_________________________________________________________________
dense_10 (Dense)             (None, 128)               16512     
_________________________________________________________________
dense_11 (Dense)             (None, 128)               16512     
_________________________________________________________________
dense_12 (Dense)             (None, 128)               16512     
_________________________________________________________________
dense_13 (Dense)             (None, 3)                 387       
=================================================================
Total params: 198,915
Trainable params: 198,915
Non-trainable params: 0
_________________________________________________________________
None
Loss takes NaN value at Epoch 4, Batch 12253. Consider using a smaller learning rate.

----------------------------------------------------------------------------------
----------------------------------------------------------------------------------
…
